…
wandb: Run data is saved locally in /net/vast-storage/scratch/vast/evlab/jackking/modular_transformers/modular_transformers/dynamics/wandb/run-20231207_133650-dxcbkbjl
wandb: Run `wandb offline` to turn off syncing.
wandb: Syncing run exalted-sweep-71
wandb: ⭐️ View project at https://wandb.ai/modular_transformers/bottleneck_sweep
wandb: 🧹 View sweep at https://wandb.ai/modular_transformers/bottleneck_sweep/sweeps/bwavwwqk
wandb: 🚀 View run at https://wandb.ai/modular_transformers/bottleneck_sweep/runs/dxcbkbjl
wandb: WARNING Config item 'n_layer' was locked by 'sweep' (ignored update).
wandb: WARNING Config item 'bottleneck' was locked by 'sweep' (ignored update).
768-768-768 size: 101.0M parameters
LM(
  (transformer): Transformer(
    (wte): Embedding(50257, 768)
    (wpe): Embedding(1024, 768)
    (drop): Dropout(p=0.1, inplace=False)
    (h): ModuleList(
      (0): TransformerBlock(
        (ln_1): LayerNorm((768,), eps=1e-05, elementwise_affine=True)
        (attn): GPT2Attention(
          (c_attn): Conv1D()
          (c_proj): Conv1D()
          (attn_dropout): Dropout(p=0.1, inplace=False)
          (resid_dropout): Dropout(p=0.1, inplace=False)
        )
        (ln_2): LayerNorm((768,), eps=1e-05, elementwise_affine=True)
        (mlp): GPT2MLP(
          (c_fc): Conv1D()
          (c_proj): Conv1D()
          (act): GELUActivation()
          (dropout): Dropout(p=0.1, inplace=False)
        )
        (dim_changer): Linear(in_features=768, out_features=768, bias=False)
      )
      (1): TransformerBlock(
        (ln_1): LayerNorm((768,), eps=1e-05, elementwise_affine=True)
        (attn): GPT2Attention(
          (c_attn): Conv1D()
          (c_proj): Conv1D()
          (attn_dropout): Dropout(p=0.1, inplace=False)
          (resid_dropout): Dropout(p=0.1, inplace=False)
        )
        (ln_2): LayerNorm((768,), eps=1e-05, elementwise_affine=True)
        (mlp): GPT2MLP(
          (c_fc): Conv1D()
          (c_proj): Conv1D()
          (act): GELUActivation()
          (dropout): Dropout(p=0.1, inplace=False)
        )
        (dim_changer): Linear(in_features=768, out_features=768, bias=False)
      )
      (2): TransformerBlock(
        (ln_1): LayerNorm((768,), eps=1e-05, elementwise_affine=True)
        (attn): GPT2Attention(
          (c_attn): Conv1D()
          (c_proj): Conv1D()
          (attn_dropout): Dropout(p=0.1, inplace=False)
          (resid_dropout): Dropout(p=0.1, inplace=False)
        )
        (ln_2): LayerNorm((768,), eps=1e-05, elementwise_affine=True)
        (mlp): GPT2MLP(
          (c_fc): Conv1D()
          (c_proj): Conv1D()
          (act): GELUActivation()
          (dropout): Dropout(p=0.1, inplace=False)
        )
        (dim_changer): Linear(in_features=768, out_features=768, bias=False)
      )
    )
    (ln_f): LayerNorm((768,), eps=1e-05, elementwise_affine=True)
  )
  (lm_head): Linear(in_features=768, out_features=50257, bias=False)
)
  0%|          | 0/17 [00:00<?, ?it/s]
  0%|          | 0/4348 [00:00<?, ?it/s][A
  0%|          | 1/4348 [00:03<3:53:08,  3.22s/it][A
  0%|          | 2/4348 [00:03<1:51:38,  1.54s/it][A
  0%|          | 3/4348 [00:03<1:11:40,  1.01it/s][A
  0%|          | 4/4348 [00:04<52:52,  1.37it/s]  [A
  0%|          | 5/4348 [00:04<42:20,  1.71it/s][A
…
