…
wandb: Run `wandb offline` to turn off syncing.
wandb: Syncing run dutiful-sweep-72
wandb: ⭐️ View project at https://wandb.ai/modular_transformers/bottleneck_sweep
wandb: 🧹 View sweep at https://wandb.ai/modular_transformers/bottleneck_sweep/sweeps/bwavwwqk
wandb: 🚀 View run at https://wandb.ai/modular_transformers/bottleneck_sweep/runs/u9713cwi
wandb: WARNING Config item 'n_layer' was locked by 'sweep' (ignored update).
wandb: WARNING Config item 'bottleneck' was locked by 'sweep' (ignored update).
768-768-768-1152-1152-768-768-768 size: 158.4M parameters
LM(
  (transformer): Transformer(
    (wte): Embedding(50257, 768)
    (wpe): Embedding(1024, 768)
    (drop): Dropout(p=0.1, inplace=False)
    (h): ModuleList(
      (0): TransformerBlock(
        (ln_1): LayerNorm((768,), eps=1e-05, elementwise_affine=True)
        (attn): GPT2Attention(
          (c_attn): Conv1D()
          (c_proj): Conv1D()
          (attn_dropout): Dropout(p=0.1, inplace=False)
          (resid_dropout): Dropout(p=0.1, inplace=False)
        )
        (ln_2): LayerNorm((768,), eps=1e-05, elementwise_affine=True)
        (mlp): GPT2MLP(
          (c_fc): Conv1D()
          (c_proj): Conv1D()
          (act): GELUActivation()
          (dropout): Dropout(p=0.1, inplace=False)
        )
        (dim_changer): Linear(in_features=768, out_features=768, bias=False)
      )
      (1): TransformerBlock(
        (ln_1): LayerNorm((768,), eps=1e-05, elementwise_affine=True)
        (attn): GPT2Attention(
          (c_attn): Conv1D()
          (c_proj): Conv1D()
          (attn_dropout): Dropout(p=0.1, inplace=False)
          (resid_dropout): Dropout(p=0.1, inplace=False)
        )
        (ln_2): LayerNorm((768,), eps=1e-05, elementwise_affine=True)
        (mlp): GPT2MLP(
          (c_fc): Conv1D()
          (c_proj): Conv1D()
          (act): GELUActivation()
          (dropout): Dropout(p=0.1, inplace=False)
        )
        (dim_changer): Linear(in_features=768, out_features=768, bias=False)
      )
      (2): TransformerBlock(
        (ln_1): LayerNorm((768,), eps=1e-05, elementwise_affine=True)
        (attn): GPT2Attention(
          (c_attn): Conv1D()
          (c_proj): Conv1D()
          (attn_dropout): Dropout(p=0.1, inplace=False)
          (resid_dropout): Dropout(p=0.1, inplace=False)
        )
        (ln_2): LayerNorm((768,), eps=1e-05, elementwise_affine=True)
        (mlp): GPT2MLP(
          (c_fc): Conv1D()
          (c_proj): Conv1D()
          (act): GELUActivation()
          (dropout): Dropout(p=0.1, inplace=False)
        )
        (dim_changer): Linear(in_features=768, out_features=1152, bias=False)
      )
      (3): TransformerBlock(
        (ln_1): LayerNorm((1152,), eps=1e-05, elementwise_affine=True)
        (attn): GPT2Attention(
          (c_attn): Conv1D()
          (c_proj): Conv1D()
          (attn_dropout): Dropout(p=0.1, inplace=False)
          (resid_dropout): Dropout(p=0.1, inplace=False)
        )
        (ln_2): LayerNorm((1152,), eps=1e-05, elementwise_affine=True)
        (mlp): GPT2MLP(
          (c_fc): Conv1D()
          (c_proj): Conv1D()
          (act): GELUActivation()
          (dropout): Dropout(p=0.1, inplace=False)
        )
        (dim_changer): Linear(in_features=1152, out_features=1152, bias=False)
      )
      (4): TransformerBlock(
        (ln_1): LayerNorm((1152,), eps=1e-05, elementwise_affine=True)
        (attn): GPT2Attention(
          (c_attn): Conv1D()
          (c_proj): Conv1D()
          (attn_dropout): Dropout(p=0.1, inplace=False)
          (resid_dropout): Dropout(p=0.1, inplace=False)
        )
        (ln_2): LayerNorm((1152,), eps=1e-05, elementwise_affine=True)
        (mlp): GPT2MLP(
          (c_fc): Conv1D()
          (c_proj): Conv1D()
          (act): GELUActivation()
          (dropout): Dropout(p=0.1, inplace=False)
        )
        (dim_changer): Linear(in_features=1152, out_features=768, bias=False)
      )
      (5): TransformerBlock(
        (ln_1): LayerNorm((768,), eps=1e-05, elementwise_affine=True)
        (attn): GPT2Attention(
          (c_attn): Conv1D()
          (c_proj): Conv1D()
          (attn_dropout): Dropout(p=0.1, inplace=False)
          (resid_dropout): Dropout(p=0.1, inplace=False)
        )
        (ln_2): LayerNorm((768,), eps=1e-05, elementwise_affine=True)
        (mlp): GPT2MLP(
          (c_fc): Conv1D()
          (c_proj): Conv1D()
          (act): GELUActivation()
          (dropout): Dropout(p=0.1, inplace=False)
        )
        (dim_changer): Linear(in_features=768, out_features=768, bias=False)
      )
      (6): TransformerBlock(
        (ln_1): LayerNorm((768,), eps=1e-05, elementwise_affine=True)
        (attn): GPT2Attention(
          (c_attn): Conv1D()
          (c_proj): Conv1D()
          (attn_dropout): Dropout(p=0.1, inplace=False)
          (resid_dropout): Dropout(p=0.1, inplace=False)
        )
        (ln_2): LayerNorm((768,), eps=1e-05, elementwise_affine=True)
        (mlp): GPT2MLP(
          (c_fc): Conv1D()
          (c_proj): Conv1D()
          (act): GELUActivation()
          (dropout): Dropout(p=0.1, inplace=False)
        )
        (dim_changer): Linear(in_features=768, out_features=768, bias=False)
      )
      (7): TransformerBlock(
        (ln_1): LayerNorm((768,), eps=1e-05, elementwise_affine=True)
        (attn): GPT2Attention(
          (c_attn): Conv1D()
          (c_proj): Conv1D()
          (attn_dropout): Dropout(p=0.1, inplace=False)
          (resid_dropout): Dropout(p=0.1, inplace=False)
        )
        (ln_2): LayerNorm((768,), eps=1e-05, elementwise_affine=True)
        (mlp): GPT2MLP(
          (c_fc): Conv1D()
          (c_proj): Conv1D()
          (act): GELUActivation()
          (dropout): Dropout(p=0.1, inplace=False)
        )
        (dim_changer): Linear(in_features=768, out_features=768, bias=False)
      )
    )
    (ln_f): LayerNorm((768,), eps=1e-05, elementwise_affine=True)
  )
  (lm_head): Linear(in_features=768, out_features=50257, bias=False)
)
  0%|          | 0/17 [00:00<?, ?it/s]
  0%|          | 0/4348 [00:00<?, ?it/s][A
  0%|          | 1/4348 [00:03<3:57:43,  3.28s/it][A
  0%|          | 2/4348 [00:03<1:58:28,  1.64s/it][A
  0%|          | 3/4348 [00:04<1:20:27,  1.11s/it][A
  0%|          | 4/4348 [00:04<1:02:43,  1.15it/s][A
  0%|          | 5/4348 [00:05<52:39,  1.37it/s]  [A
…
